is_train: 1 
tensorboard: 1 
cpu: False 
gpu: 0 
num_gpu: 1 
num_work: 8 
exp_dir: ../results 
exp_load: None 
data_dir: /mnt/sda 
data_name: fashion_mnist 
batch_size: 32 
rgb_range: 1 
uncertainty: aleatoric_tstudent 
in_channels: 1 
n_feats: 32 
var_weight: 1.0 
drop_rate: 0.2 
epochs: 20 
lr: 0.001 
decay: 5-10-15-20 
gamma: 0.5 
optimizer: adam 
weight_decay: 0.001 
momentum: 0.9 
betas: (0.9, 0.999) 
epsilon: 1e-08 
n_samples: 25 
device: cuda:0 
Model(
  (model): ALEATORIC_TSTUDENT(
    (encoders): ModuleList(
      (0): _Encoder(
        (features): Sequential(
          (0): Conv2d(1, 64, kernel_size=(3, 3), stride=(1, 1), padding=(1, 1)), [92m640[0m params
          (1): BatchNorm2d(64, eps=1e-05, momentum=0.1, affine=True, track_running_stats=True), [92m128[0m params
          (2): ReLU(), [92m0[0m params
          (3): Conv2d(64, 64, kernel_size=(3, 3), stride=(1, 1), padding=(1, 1)), [92m36,928[0m params
          (4): BatchNorm2d(64, eps=1e-05, momentum=0.1, affine=True, track_running_stats=True), [92m128[0m params
          (5): ReLU(), [92m0[0m params
        ), [92m37,824[0m params
      ), [92m37,824[0m params
      (1): _Encoder(
        (features): Sequential(
          (0): Conv2d(64, 128, kernel_size=(3, 3), stride=(1, 1), padding=(1, 1)), [92m73,856[0m params
          (1): BatchNorm2d(128, eps=1e-05, momentum=0.1, affine=True, track_running_stats=True), [92m256[0m params
          (2): ReLU(), [92m0[0m params
          (3): Conv2d(128, 128, kernel_size=(3, 3), stride=(1, 1), padding=(1, 1)), [92m147,584[0m params
          (4): BatchNorm2d(128, eps=1e-05, momentum=0.1, affine=True, track_running_stats=True), [92m256[0m params
          (5): ReLU(), [92m0[0m params
        ), [92m221,952[0m params
      ), [92m221,952[0m params
    ), [92m259,776[0m params
    (decoders_mean): ModuleList(
      (0): _Decoder(
        (features): Sequential(
          (0): Conv2d(128, 128, kernel_size=(3, 3), stride=(1, 1), padding=(1, 1)), [92m147,584[0m params
          (1): BatchNorm2d(128, eps=1e-05, momentum=0.1, affine=True, track_running_stats=True), [92m256[0m params
          (2): ReLU(), [92m0[0m params
          (3): Conv2d(128, 64, kernel_size=(3, 3), stride=(1, 1), padding=(1, 1)), [92m73,792[0m params
          (4): BatchNorm2d(64, eps=1e-05, momentum=0.1, affine=True, track_running_stats=True), [92m128[0m params
          (5): ReLU(), [92m0[0m params
        ), [92m221,760[0m params
      ), [92m221,760[0m params
      (1): _Decoder(
        (features): Sequential(
          (0): Conv2d(64, 64, kernel_size=(3, 3), stride=(1, 1), padding=(1, 1)), [92m36,928[0m params
          (1): BatchNorm2d(64, eps=1e-05, momentum=0.1, affine=True, track_running_stats=True), [92m128[0m params
          (2): ReLU(), [92m0[0m params
          (3): Conv2d(64, 64, kernel_size=(3, 3), stride=(1, 1), padding=(1, 1)), [92m36,928[0m params
          (4): BatchNorm2d(64, eps=1e-05, momentum=0.1, affine=True, track_running_stats=True), [92m128[0m params
          (5): ReLU(), [92m0[0m params
        ), [92m74,112[0m params
      ), [92m74,112[0m params
    ), [92m295,872[0m params
    (decoders_t): ModuleList(
      (0): _Decoder(
        (features): Sequential(
          (0): Conv2d(128, 128, kernel_size=(3, 3), stride=(1, 1), padding=(1, 1)), [92m147,584[0m params
          (1): BatchNorm2d(128, eps=1e-05, momentum=0.1, affine=True, track_running_stats=True), [92m256[0m params
          (2): ReLU(), [92m0[0m params
          (3): Conv2d(128, 64, kernel_size=(3, 3), stride=(1, 1), padding=(1, 1)), [92m73,792[0m params
          (4): BatchNorm2d(64, eps=1e-05, momentum=0.1, affine=True, track_running_stats=True), [92m128[0m params
          (5): ReLU(), [92m0[0m params
        ), [92m221,760[0m params
      ), [92m221,760[0m params
      (1): _Decoder(
        (features): Sequential(
          (0): Conv2d(64, 64, kernel_size=(3, 3), stride=(1, 1), padding=(1, 1)), [92m36,928[0m params
          (1): BatchNorm2d(64, eps=1e-05, momentum=0.1, affine=True, track_running_stats=True), [92m128[0m params
          (2): ReLU(), [92m0[0m params
          (3): Conv2d(64, 64, kernel_size=(3, 3), stride=(1, 1), padding=(1, 1)), [92m36,928[0m params
          (4): BatchNorm2d(64, eps=1e-05, momentum=0.1, affine=True, track_running_stats=True), [92m128[0m params
          (5): ReLU(), [92m0[0m params
        ), [92m74,112[0m params
      ), [92m74,112[0m params
    ), [92m295,872[0m params
    (decoders_v): ModuleList(
      (0): _Decoder(
        (features): Sequential(
          (0): Conv2d(128, 128, kernel_size=(3, 3), stride=(1, 1), padding=(1, 1)), [92m147,584[0m params
          (1): BatchNorm2d(128, eps=1e-05, momentum=0.1, affine=True, track_running_stats=True), [92m256[0m params
          (2): ReLU(), [92m0[0m params
          (3): Conv2d(128, 64, kernel_size=(3, 3), stride=(1, 1), padding=(1, 1)), [92m73,792[0m params
          (4): BatchNorm2d(64, eps=1e-05, momentum=0.1, affine=True, track_running_stats=True), [92m128[0m params
          (5): ReLU(), [92m0[0m params
        ), [92m221,760[0m params
      ), [92m221,760[0m params
      (1): _Decoder(
        (features): Sequential(
          (0): Conv2d(64, 64, kernel_size=(3, 3), stride=(1, 1), padding=(1, 1)), [92m36,928[0m params
          (1): BatchNorm2d(64, eps=1e-05, momentum=0.1, affine=True, track_running_stats=True), [92m128[0m params
          (2): ReLU(), [92m0[0m params
          (3): Conv2d(64, 64, kernel_size=(3, 3), stride=(1, 1), padding=(1, 1)), [92m36,928[0m params
          (4): BatchNorm2d(64, eps=1e-05, momentum=0.1, affine=True, track_running_stats=True), [92m128[0m params
          (5): ReLU(), [92m0[0m params
        ), [92m74,112[0m params
      ), [92m74,112[0m params
    ), [92m295,872[0m params
    (classifier_mean): Conv2d(64, 1, kernel_size=(3, 3), stride=(1, 1), padding=(1, 1)), [92m577[0m params
    (classifier_t): Conv2d(64, 1, kernel_size=(3, 3), stride=(1, 1), padding=(1, 1)), [92m577[0m params
    (classifier_v): Conv2d(64, 1, kernel_size=(3, 3), stride=(1, 1), padding=(1, 1)), [92m577[0m params
    (filter_v): Reduction(), [92m0[0m params
  ), [92m1,149,123[0m params
), [92m1,149,123[0m params
