…
/usr/local/lib/python3.10/dist-packages/torch/utils/data/dataloader.py:557: UserWarning: This DataLoader will create 8 worker processes in total. Our suggested max number of worker in current system is 2, which is smaller than what this DataLoader is going to create. Please be aware that excessive worker creation might get DataLoader running slow or even freeze, lower the worker number to avoid potential slowness/freeze if necessary.
  warnings.warn(_create_warning_msg(
Extracting /mnt/sda/FashionMNIST/raw/t10k-labels-idx1-ubyte.gz to /mnt/sda/FashionMNIST/raw

==>>> Total training batch number: 1875
==>>> Total testing batch number: 313
Tensorboard is activated.
Run tensorboard --logdir=../results/fashion_mnist/aleatoric_gaussian/log
Making model...
Model(
  (model): ALEATORIC_GAUSSIAN(
    (encoders): ModuleList(
      (0): _Encoder(
        (features): Sequential(
          (0): Conv2d(1, 64, kernel_size=(3, 3), stride=(1, 1), padding=(1, 1)), [92m640[0m params
          (1): BatchNorm2d(64, eps=1e-05, momentum=0.1, affine=True, track_running_stats=True), [92m128[0m params
          (2): ReLU(), [92m0[0m params
          (3): Conv2d(64, 64, kernel_size=(3, 3), stride=(1, 1), padding=(1, 1)), [92m36,928[0m params
          (4): BatchNorm2d(64, eps=1e-05, momentum=0.1, affine=True, track_running_stats=True), [92m128[0m params
          (5): ReLU(), [92m0[0m params
        ), [92m37,824[0m params
      ), [92m37,824[0m params
      (1): _Encoder(
        (features): Sequential(
          (0): Conv2d(64, 128, kernel_size=(3, 3), stride=(1, 1), padding=(1, 1)), [92m73,856[0m params
          (1): BatchNorm2d(128, eps=1e-05, momentum=0.1, affine=True, track_running_stats=True), [92m256[0m params
          (2): ReLU(), [92m0[0m params
          (3): Conv2d(128, 128, kernel_size=(3, 3), stride=(1, 1), padding=(1, 1)), [92m147,584[0m params
          (4): BatchNorm2d(128, eps=1e-05, momentum=0.1, affine=True, track_running_stats=True), [92m256[0m params
          (5): ReLU(), [92m0[0m params
        ), [92m221,952[0m params
      ), [92m221,952[0m params
    ), [92m259,776[0m params
    (decoders_mean): ModuleList(
      (0): _Decoder(
        (features): Sequential(
          (0): Conv2d(128, 128, kernel_size=(3, 3), stride=(1, 1), padding=(1, 1)), [92m147,584[0m params
          (1): BatchNorm2d(128, eps=1e-05, momentum=0.1, affine=True, track_running_stats=True), [92m256[0m params
          (2): ReLU(), [92m0[0m params
          (3): Conv2d(128, 64, kernel_size=(3, 3), stride=(1, 1), padding=(1, 1)), [92m73,792[0m params
          (4): BatchNorm2d(64, eps=1e-05, momentum=0.1, affine=True, track_running_stats=True), [92m128[0m params
          (5): ReLU(), [92m0[0m params
        ), [92m221,760[0m params
      ), [92m221,760[0m params
      (1): _Decoder(
        (features): Sequential(
          (0): Conv2d(64, 64, kernel_size=(3, 3), stride=(1, 1), padding=(1, 1)), [92m36,928[0m params
          (1): BatchNorm2d(64, eps=1e-05, momentum=0.1, affine=True, track_running_stats=True), [92m128[0m params
          (2): ReLU(), [92m0[0m params
          (3): Conv2d(64, 64, kernel_size=(3, 3), stride=(1, 1), padding=(1, 1)), [92m36,928[0m params
          (4): BatchNorm2d(64, eps=1e-05, momentum=0.1, affine=True, track_running_stats=True), [92m128[0m params
          (5): ReLU(), [92m0[0m params
        ), [92m74,112[0m params
      ), [92m74,112[0m params
    ), [92m295,872[0m params
    (decoders_var): ModuleList(
      (0): _Decoder(
        (features): Sequential(
          (0): Conv2d(128, 128, kernel_size=(3, 3), stride=(1, 1), padding=(1, 1)), [92m147,584[0m params
          (1): BatchNorm2d(128, eps=1e-05, momentum=0.1, affine=True, track_running_stats=True), [92m256[0m params
          (2): ReLU(), [92m0[0m params
          (3): Conv2d(128, 64, kernel_size=(3, 3), stride=(1, 1), padding=(1, 1)), [92m73,792[0m params
          (4): BatchNorm2d(64, eps=1e-05, momentum=0.1, affine=True, track_running_stats=True), [92m128[0m params
          (5): ReLU(), [92m0[0m params
        ), [92m221,760[0m params
      ), [92m221,760[0m params
      (1): _Decoder(
        (features): Sequential(
          (0): Conv2d(64, 64, kernel_size=(3, 3), stride=(1, 1), padding=(1, 1)), [92m36,928[0m params
          (1): BatchNorm2d(64, eps=1e-05, momentum=0.1, affine=True, track_running_stats=True), [92m128[0m params
          (2): ReLU(), [92m0[0m params
          (3): Conv2d(64, 64, kernel_size=(3, 3), stride=(1, 1), padding=(1, 1)), [92m36,928[0m params
          (4): BatchNorm2d(64, eps=1e-05, momentum=0.1, affine=True, track_running_stats=True), [92m128[0m params
          (5): ReLU(), [92m0[0m params
        ), [92m74,112[0m params
      ), [92m74,112[0m params
    ), [92m295,872[0m params
    (classifier_mean): Conv2d(64, 1, kernel_size=(3, 3), stride=(1, 1), padding=(1, 1)), [92m577[0m params
    (classifier_var): Conv2d(64, 1, kernel_size=(3, 3), stride=(1, 1), padding=(1, 1)), [92m577[0m params
  ), [92m852,674[0m params
), [92m852,674[0m params
Preparing loss function...
Epoch: 000/020, Iter: 000/313, Loss: 0.290035
Epoch: 000/020, Iter: 001/313, Loss: 0.275736
Epoch: 000/020, Iter: 002/313, Loss: 0.090496
Epoch: 000/020, Iter: 003/313, Loss: 0.027128
Epoch: 000/020, Iter: 004/313, Loss: -0.068922
Epoch: 000/020, Iter: 005/313, Loss: -0.167841
…
